export_to_onnx/my_first_model.onnx (onnx, 13677 bytes, 2 tensors)

conv1.weight f4 [128, 1, 5, 5]
0	0x3db053f6	0.08609764
1	0x3d6690b4	0.056290343
2	0xbcdc94b0	-0.026926368
3	0xbe14e2e3	-0.14539675
4	0x3df3a762	0.1189716
5	0xbccd6fc0	-0.0250777
6	0x3deccf2a	0.11562951
7	0xbd472694	-0.048620775
8	0x3e455131	0.19269253
9	0x3db6a91e	0.08918975
10	0xbe19f93d	-0.15036483
11	0xbe2461e2	-0.16052964
12	0xbde707c0	-0.11280775
13	0xbdccaaaa	-0.09993489
14	0xbd1b7874	-0.03795667
15	0x3e195dd5	0.149772
16	0xbdb240aa	-0.0870374
17	0x3e1b78ef	0.15182851
18	0xbe0beb3c	-0.13663954
19	0x3e14e3e3	0.14540057
20	0x3e02d3e9	0.1277615
21	0x3d824e5a	0.063626006
22	0x3bb4fa40	0.005522996
23	0x3d1d0d58	0.038342804
24	0x3d1411c0	0.03614974
25	0x3d4cd624	0.050008908
26	0xbd926ec6	-0.071500346
27	0xbe178362	-0.14796212
28	0x3dcb0c92	0.09914507
29	0x3d247ca8	0.040157944
30	0xbe14f488	-0.14546406
31	0x3cabccc0	0.020971656
32	0xbce1cf98	-0.027564809
33	0xbdeed063	-0.1166084
34	0xbe021340	-0.12702656
35	0x3d05ffcc	0.03271465
36	0xbe4af3cd	-0.19819565
37	0xbd675ef4	-0.05648704
38	0x3c75cb80	0.015002131
39	0x3d3f56c8	0.04671362
40	0x3d8e3b62	0.0694492
41	0x3e2e8d6b	0.17046134
42	0xbd28d7b8	-0.04122135
43	0x3e4ad073	0.1980608
44	0xbc1fa1a0	-0.009743124
45	0xbcb24230	-0.021760076
46	0x3e3c694f	0.18399547
47	0x3e042477	0.12904535
48	0xbcb32840	-0.021869779
49	0x3b743140	0.00372608
50	0x3d358560	0.04431665
51	0xbe15ce1b	-0.14629404
52	0xbe108643	-0.14113717
53	0xbdf5b8a0	-0.11998105
54	0x3e12c1e1	0.14331771
55	0xbe2833d2	-0.16426018
56	0x3c15f4e0	0.009152621
57	0xbdf4888a	-0.11940105
58	0x3dc99e2a	0.098446205
59	0xbdb7ecf7	-0.08980744
60	0x3e181289	0.1485082
61	0xbbd63860	-0.006537482
62	0xbd8fd56c	-0.07023129
63	0x3d456a0c	0.048196837
64	0xbde57f5a	-0.11205931
65	0x3e3af0c3	0.18255906
66	0x3d964d32	0.073389426
67	0xbdc211bd	-0.094760396
68	0x3e3f68ab	0.18692271
69	0xbdff04fd	-0.12452123
70	0xbc780d50	-0.015139893
71	0x3dbbaa22	0.0916331
72	0x3ddee886	0.10884194
73	0x3bbc9b40	0.005755812
74	0xbe3bd90d	-0.18344517
75	0x3d90c7ee	0.070693836
76	0x3d13ed88	0.0361152
77	0xbe19d7a5	-0.15023668
78	0x3e1742b3	0.14771537
79	0xbd2d8014	-0.042358473
80	0x3e00c11f	0.1257367
81	0x3e3c9a71	0.1841829
82	0x3dfd1eb6	0.12359373
83	0x3dadbff6	0.08483879
84	0xbe2ecfa3	-0.17071395
85	0xbd081ec0	-0.03323245
86	0xbe2de342	-0.16981223
87	0x3c492d60	0.012278885
88	0xbcdb1110	-0.026741534
89	0xbd733754	-0.059378937
90	0x3db1ed76	0.0868787
91	0xbe202865	-0.1564041
92	0xbe4675d2	-0.19380882
93	0x3df89aaa	0.12138875
94	0x3da2a67e	0.07941912
95	0xbda0acf7	-0.078454904
96	0xbd1208c0	-0.035652876
97	0x3e205b67	0.15659867
98	0x3e414be9	0.18876614
99	0x3b3d9380	0.0028927028
100	0x3e459519	0.19295157
101	0x3e0571d3	0.13031702
102	0xbda17b13	-0.07884803
103	0xbdf4e34d	-0.11957417
104	0xbd0a3568	-0.03374234
105	0x3d79e76c	0.061011717
106	0x3c999cb0	0.018751472
107	0x3e153461	0.14570762
108	0x3e18bd05	0.14915855
109	0xbe0f518a	-0.13995948
110	0xbce70d30	-0.02820453
111	0xbe4abc8a	-0.19798484
112	0xbde06ca3	-0.10958221
113	0xbdbc776d	-0.09202466
114	0xbe07ebbd	-0.13273521
115	0xbdd0934a	-0.10184343
116	0x3ce5e7d8	0.028064653
117	0xbe37ab52	-0.17936447
118	0xbba1f660	-0.0049427003
119	0x3d5e113c	0.054215655
120	0xbe3b3902	-0.18283466
121	0xbe09b948	-0.13449585
122	0x3e228d39	0.15874185
123	0x3e2893e3	0.16462664
124	0xbdbeb3b7	-0.09311622
125	0x3e2be80d	0.16787739
126	0x3dfa9dd2	0.12237133
127	0xbdaf9130	-0.08572614
128	0x3d8e086a	0.069351986
129	0x3e067349	0.13129915
130	0xbdb0b590	-0.0862838
131	0x3e4b3b2d	0.19846793
132	0xbe40be33	-0.18822555
133	0xbda0ab37	-0.07845157
134	0xbd8fce1c	-0.07021734
135	0xbdb72477	-0.08942502
136	0xbcdcd950	-0.026959091
137	0xbe180a70	-0.14847732
138	0xbe039e1e	-0.12853286
139	0x3d022e14	0.031782225
140	0xbda13703	-0.07871821
141	0xbd0da9e8	-0.034585863
142	0x3e158693	0.14602117
143	0xbe23874d	-0.15969582
144	0x3de06d0e	0.109583005
145	0x3e460679	0.19338407
146	0xbe144446	-0.14479169
147	0x3e2ded77	0.16985117
148	0xbb37b780	-0.0028032959
149	0x3e1dde9f	0.15416954
150	0xbe2560aa	-0.16150156
151	0xbdafd3ba	-0.085853055
152	0xbe0d93aa	-0.1382586
153	0x3d60b164	0.054856673
154	0x3ce2f6e8	0.027705625
155	0xbda76b03	-0.08174708
156	0xbddbd10d	-0.10733233
157	0x3db06462	0.086128965
158	0xbd9df43a	-0.07712598
159	0x3e2db247	0.16962539
160	0x3d9ab516	0.07554071
161	0xbdb4affa	-0.08822627
162	0xbcae6f98	-0.021293446
163	0xbd2aecf4	-0.041729882
164	0x3e32c713	0.17458753
165	0x3e1b9d4b	0.15196721
166	0xbd365a88	-0.04451993
167	0x3e3ef241	0.186471
168	0x3db12e66	0.08651428
169	0x3e35797f	0.17722128
170	0x3d14b760	0.036307693
171	0x3d98d916	0.07463281
172	0x3c5cf5b0	0.013486311
173	0x3d681e2c	0.0566694
174	0xbd85524a	-0.06509836
175	0xbe2bb25a	-0.16767254
176	0x3d73a804	0.059486404
177	0x3d66567c	0.05623482
178	0x3e343ce1	0.17601348
179	0x3c396230	0.011314914
180	0xbdca2dcd	-0.09872017
181	0x3e1bcf21	0.15215732
182	0xbe20c806	-0.15701303
183	0x3cb75258	0.022378132
184	0xbdb57a97	-0.08861273
185	0x3e25945d	0.16169877
186	0xbe1dfe1a	-0.15428963
187	0xbcd13498	-0.025537774
188	0xbdde9603	-0.10868456
189	0xbdeffb2a	-0.117178276
190	0xbdb540c7	-0.08850246
191	0xbdfe3af3	-0.124135874
192	0x3d16378c	0.036674067
193	0xbe14a0c6	-0.14514455
194	0x3e4bcad1	0.19901587
195	0x3d482594	0.048863962
196	0xbe3b9208	-0.18317425
197	0x3e274a7d	0.16337009
198	0x3e17b359	0.1481451
199	0xbe05c706	-0.13064203
200	0x3d998eb2	0.0749792
201	0x3dbf62b2	0.093449965
202	0x3dcd1a8a	0.100148275
203	0xbda19f8a	-0.07891758
204	0xbe041372	-0.12898043
205	0xbe151bab	-0.14561336
206	0xbcf9df90	-0.03050211
207	0x3d85528a	0.06509884
208	0xbd033b2c	-0.032038853
209	0xbe12da1d	-0.14341016
210	0x3e4bfc31	0.19920422
211	0xbe3e8190	-0.18604112
212	0xbc9a5be8	-0.018842652
213	0xbe388cd0	-0.18022466
214	0x3ddbc8ee	0.10731684
215	0x3d87f14e	0.06637822
216	0x3ddf8c92	0.109154835
217	0xbe018f82	-0.126524
218	0xbd0df7d8	-0.03466019
219	0xbe303f52	-0.17211655
220	0x3c680eb0	0.014163658
221	0x3bee1ec0	0.0072668493
222	0x3e304c1f	0.17216538
223	0x3e09eccb	0.13469236
224	0x3d95c0c2	0.07312156
225	0x3e2832b7	0.16425596
226	0x3e39d535	0.18147738
227	0x3e0e2dcd	0.13884659
228	0xbe38a3f0	-0.18031287
229	0x3c88ac00	0.016683578
230	0x3e3a9281	0.1821995
231	0xbdb3b147	-0.08774047
232	0xbe34679d	-0.1761765
233	0x3e156d61	0.14592506
234	0x3de90d3a	0.11379476
235	0xbdf2d397	-0.11856764
236	0xbcc7de98	-0.024398133
237	0xbe4bb8b2	-0.19894674
238	0xbdedc3d3	-0.11609616
239	0x3dd6be26	0.10485487
240	0xbd30c94c	-0.04316072
241	0x3aa6f680	0.0012738258
242	0x3e0aaec3	0.13543229
243	0x3d0564a0	0.032566667
244	0x3b2bbd80	0.002620548
245	0xbd1d5974	-0.038415387
246	0xbe0e0b13	-0.13871412
247	0x3e05f599	0.1308197
248	0xbe03abc4	-0.12858492
249	0x3d8aaea2	0.0677159
250	0x3d893caa	0.06701024
251	0xbd0e836c	-0.034793302
252	0xbda4bf20	-0.08044267
253	0xbd5388b8	-0.051644057
254	0xbdb47a70	-0.088124156
255	0xbe27d8e3	-0.1639133

conv1.bias f4 [128]
0	0xbe47d005	-0.19512947
1	0x3e3ae5f1	0.18251778
2	0xbe25907e	-0.161684
3	0x3d73ea3c	0.059549555
4	0xbd6864d4	-0.056736782
5	0xbe391565	-0.18074568
6	0xbd041560	-0.032246947
7	0x3e21ead3	0.15812235
8	0xbe0944da	-0.13405171
9	0xbdad79b3	-0.08470478
10	0x3cc9f630	0.024653524
11	0x3e268637	0.16262136
12	0x3e3dcf41	0.18536092
13	0x3e3d3b17	0.18479572
14	0x3e477523	0.19478278
15	0x3e42adfb	0.19011681
16	0xbdcb5a43	-0.099293254
17	0x3e46aab5	0.19401057
18	0x3df158c6	0.1178451
19	0xbd9935e6	-0.074809834
20	0x3e415e67	0.18883668
21	0xbd968176	-0.073489115
22	0xbe27e462	-0.16395715
23	0x3d371940	0.044701815
24	0xbc3263e0	-0.01088807
25	0xbdd3836a	-0.103277996
26	0x3daf3ee2	0.08556916
27	0xbcf69750	-0.030101448
28	0x3e2abd81	0.16673853
29	0x3dbc088a	0.09181316
30	0x3a716800	0.00092089176
31	0xbda22df0	-0.07918918
32	0x3d8a8912	0.06764425
33	0xbe0461c6	-0.12927923
34	0x3bd23840	0.006415397
35	0x3e4613d7	0.19343506
36	0xbdf4054a	-0.11915071
37	0x3e145729	0.14486374
38	0xbe256415	-0.1615146
39	0x3c28fe00	0.010314465
40	0x3dc31946	0.09526305
41	0x3deb4312	0.11487402
42	0x3d8aaf5e	0.0677173
43	0xbe062e56	-0.13103613
44	0x3dcd4bba	0.10024209
45	0x3dbe856a	0.093027905
46	0x3d83d2a2	0.064366594
47	0x3dcad092	0.09903063
48	0xbbc87d40	-0.0061184466
49	0xbd59f3f8	-0.053211182
50	0xbdd456a7	-0.1036809
51	0x3e3d51f7	0.18488298
52	0x3e16effb	0.14739983
53	0xbe0d6a32	-0.13810042
54	0x3e21ce79	0.1580142
55	0x3cf54c98	0.02994375
56	0x3deaceda	0.11465235
57	0xbe17a57a	-0.14809218
58	0xbe08a31d	-0.13343473
59	0x3e2b13ad	0.16706724
60	0xbdfb9143	-0.12283566
61	0x3d2cd688	0.04219678
62	0xbd9b1823	-0.07572963
63	0x3c53f730	0.012937352
64	0x3d6421d4	0.055696324
65	0xbdd5e91d	-0.104448535
66	0x3e4341a5	0.1906801
67	0x3d1f8f58	0.038955063
68	0x3deedc12	0.11663069
69	0x3dc392b2	0.09549464
70	0x3e26e961	0.16299964
71	0x3dec5862	0.11540295
72	0x3e22f579	0.15913953
73	0xbe1b8796	-0.1518844
74	0xbe26ec40	-0.1630106
75	0xbda43993	-0.08018794
76	0x3e318391	0.17335345
77	0xbc9efe18	-0.01940827
78	0xbcfec2b0	-0.031098694
79	0x3d801e6a	0.06255801
80	0xbdfce26d	-0.12347875
81	0x3e1c3193	0.15253286
82	0x3e12c721	0.14333774
83	0xbdf7cc57	-0.120995216
84	0xbdcf7b43	-0.10130932
85	0x3c891b58	0.016736671
86	0xbdb118ea	-0.0864733
87	0xbe494158	-0.19653833
88	0x3e0f78bb	0.14010899
89	0xbdd8a45a	-0.105782226
90	0xbd875910	-0.06608784
91	0xbe1ca38d	-0.15296765
92	0x3daf89b2	0.08571185
93	0x3e41fd5d	0.18944307
94	0x3db93b9a	0.09044571
95	0xbdfe8083	-0.124268554
96	0x3e0adb39	0.1356019
97	0xbe198075	-0.14990409
98	0x3d12bee0	0.035826564
99	0x3e2fdf97	0.17175137
100	0x3dbaabc2	0.091147915
101	0x3e3763e3	0.17909198
102	0xbd2010f4	-0.039078668
103	0x3d2c2d58	0.04203543
104	0xbe286dd2	-0.16448143
105	0x3e41f529	0.18941177
106	0xbd10be78	-0.035337895
107	0x3db85b4a	0.09001787
108	0xbcd838e8	-0.026394323
109	0xbe3527bf	-0.17690943
110	0xbe131988	-0.14365208
111	0xbdc3c00a	-0.09558113
112	0x3df5a0c2	0.11993553
113	0x3e281789	0.16415228
114	0xbcf5a600	-0.029986382
115	0x3cdac900	0.026707172
116	0xbd483f8c	-0.048888728
117	0xbe27193e	-0.16318223
118	0xbe0e5c20	-0.1390233
119	0xbdb2b480	-0.08725834
120	0x3d52cadc	0.051462993
121	0x3b0c7ec0	0.0021437854
122	0xbd7d6fac	-0.061874077
123	0x3d26500c	0.040603682
124	0x3d57becc	0.052672192
125	0xbd8ac9fc	-0.06776807
126	0x3dd4e976	0.10396092
127	0x3e2955cd	0.16536637
